…
2021-07-19 07:41:55.768364: I tensorflow/core/common_runtime/gpu/gpu_device.cc:1402] Created TensorFlow device (/job:localhost/replica:0/task:0/device:GPU:0 with 14904 MB memory) -> physical GPU (device: 0, name: Quadro RTX 5000, pci bus id: 0000:3b:00.0, compute capability: 7.5)
Model: "functional_1"
_________________________________________________________________
Layer (type)                 Output Shape              Param #   
=================================================================
input_1 (InputLayer)         [(None, 14336, 1)]        0         
_________________________________________________________________
Conv_1 (Conv1D)              (None, 14332, 32)         192       
_________________________________________________________________
batch_normalization (BatchNo (None, 14332, 32)         128       
_________________________________________________________________
Pooling_1 (MaxPooling1D)     (None, 7166, 32)          0         
_________________________________________________________________
Conv_2 (Conv1D)              (None, 7162, 32)          5152      
_________________________________________________________________
Pooling_2 (MaxPooling1D)     (None, 3581, 32)          0         
_________________________________________________________________
Conv_3 (Conv1D)              (None, 3577, 64)          10304     
_________________________________________________________________
Pooling_3 (MaxPooling1D)     (None, 1788, 64)          0         
_________________________________________________________________
Conv_4 (Conv1D)              (None, 1784, 64)          20544     
_________________________________________________________________
Pooling_4 (MaxPooling1D)     (None, 892, 64)           0         
_________________________________________________________________
Conv_5 (Conv1D)              (None, 888, 128)          41088     
_________________________________________________________________
Pooling_5 (MaxPooling1D)     (None, 444, 128)          0         
_________________________________________________________________
Conv_6 (Conv1D)              (None, 440, 128)          82048     
_________________________________________________________________
Pooling_6 (MaxPooling1D)     (None, 220, 128)          0         
_________________________________________________________________
dropout (Dropout)            (None, 220, 128)          0         
_________________________________________________________________
Conv_7 (Conv1D)              (None, 216, 256)          164096    
_________________________________________________________________
Pooling_7 (MaxPooling1D)     (None, 108, 256)          0         
_________________________________________________________________
Conv_8 (Conv1D)              (None, 104, 256)          327936    
_________________________________________________________________
Pooling_8 (MaxPooling1D)     (None, 52, 256)           0         
_________________________________________________________________
dropout_1 (Dropout)          (None, 52, 256)           0         
_________________________________________________________________
Conv_9 (Conv1D)              (None, 48, 512)           655872    
_________________________________________________________________
Pooling_9 (MaxPooling1D)     (None, 24, 512)           0         
_________________________________________________________________
dropout_2 (Dropout)          (None, 24, 512)           0         
_________________________________________________________________
Conv_10 (Conv1D)             (None, 20, 512)           1311232   
_________________________________________________________________
Flatten1 (Flatten)           (None, 10240)             0         
_________________________________________________________________
dense (Dense)                (None, 128)               1310848   
_________________________________________________________________
dropout_3 (Dropout)          (None, 128)               0         
_________________________________________________________________
dense_1 (Dense)              (None, 32)                4128      
_________________________________________________________________
dense_2 (Dense)              (None, 2)                 66        
=================================================================
Total params: 3,933,634
Trainable params: 3,933,570
Non-trainable params: 64
_________________________________________________________________
----------------------------------------
Fit model on training data
Epoch 1/50
2021-07-19 07:41:58.635034: I tensorflow/stream_executor/platform/default/dso_loader.cc:48] Successfully opened dynamic library libcublas.so.10
…
