…
Relying on driver to perform ptx compilation. 
Modify $PATH to customize ptxas location.
This message will be only logged once.
Read data
Data loaded
----------------------------------------
----------------------------------------
Define model architecture
Model: "functional_1"
_________________________________________________________________
Layer (type)                 Output Shape              Param #   
=================================================================
input_1 (InputLayer)         [(None, 14336, 1)]        0         
_________________________________________________________________
Conv_1 (Conv1D)              (None, 14318, 11)         220       
_________________________________________________________________
batch_normalization (BatchNo (None, 14318, 11)         44        
_________________________________________________________________
Pooling_1 (MaxPooling1D)     (None, 7159, 11)          0         
_________________________________________________________________
Conv_2 (Conv1D)              (None, 7141, 12)          2520      
_________________________________________________________________
Pooling_2 (MaxPooling1D)     (None, 3570, 12)          0         
_________________________________________________________________
Conv_3 (Conv1D)              (None, 3560, 11)          1463      
_________________________________________________________________
Pooling_3 (MaxPooling1D)     (None, 1780, 11)          0         
_________________________________________________________________
Flatten1 (Flatten)           (None, 19580)             0         
_________________________________________________________________
dense (Dense)                (None, 12)                234972    
_________________________________________________________________
dropout (Dropout)            (None, 12)                0         
_________________________________________________________________
dense_1 (Dense)              (None, 2)                 26        
=================================================================
Total params: 239,245
Trainable params: 239,223
Non-trainable params: 22
_________________________________________________________________
----------------------------------------
Fit model on training data
Epoch 1/50
202/202 - 17s - loss: 0.7018 - accuracy: 0.5148 - val_loss: 0.6922 - val_accuracy: 0.5250
Epoch 2/50
202/202 - 3s - loss: 0.6761 - accuracy: 0.5633 - val_loss: 0.6583 - val_accuracy: 0.6304
…
