…
WARNING:tensorflow:Callbacks method `on_test_batch_end` is slow compared to the batch time (batch time: 0.0031s vs `on_test_batch_end` time: 0.0431s). Check your callbacks.
Read data
Data loaded
----------------------------------------
----------------------------------------
Define model architecture
Model: "functional_1"
_________________________________________________________________
Layer (type)                 Output Shape              Param #   
=================================================================
input_1 (InputLayer)         [(None, 14336, 1)]        0         
_________________________________________________________________
Conv_1 (Conv1D)              (None, 14334, 64)         256       
_________________________________________________________________
Conv_2 (Conv1D)              (None, 14332, 64)         12352     
_________________________________________________________________
Pooling_1 (MaxPooling1D)     (None, 7166, 64)          0         
_________________________________________________________________
Conv_3 (Conv1D)              (None, 7164, 128)         24704     
_________________________________________________________________
Conv_4 (Conv1D)              (None, 7162, 128)         49280     
_________________________________________________________________
Pooling_2 (MaxPooling1D)     (None, 3581, 128)         0         
_________________________________________________________________
Conv_5 (Conv1D)              (None, 3579, 256)         98560     
_________________________________________________________________
Conv_6 (Conv1D)              (None, 3577, 256)         196864    
_________________________________________________________________
Conv_7 (Conv1D)              (None, 3575, 256)         196864    
_________________________________________________________________
Pooling_3 (MaxPooling1D)     (None, 1787, 256)         0         
_________________________________________________________________
Conv_8 (Conv1D)              (None, 1785, 512)         393728    
_________________________________________________________________
Conv_9 (Conv1D)              (None, 1783, 512)         786944    
_________________________________________________________________
Conv_10 (Conv1D)             (None, 1781, 512)         786944    
_________________________________________________________________
Pooling_4 (MaxPooling1D)     (None, 890, 512)          0         
_________________________________________________________________
Conv_11 (Conv1D)             (None, 888, 512)          786944    
_________________________________________________________________
Conv_12 (Conv1D)             (None, 886, 512)          786944    
_________________________________________________________________
Conv_13 (Conv1D)             (None, 884, 512)          786944    
_________________________________________________________________
Pooling_5 (MaxPooling1D)     (None, 442, 512)          0         
_________________________________________________________________
Flatten1 (Flatten)           (None, 226304)            0         
_________________________________________________________________
dense (Dense)                (None, 1000)              226305000 
_________________________________________________________________
dense_1 (Dense)              (None, 1000)              1001000   
_________________________________________________________________
dense_2 (Dense)              (None, 1)                 1001      
=================================================================
Total params: 232,214,329
Trainable params: 232,214,329
Non-trainable params: 0
_________________________________________________________________
----------------------------------------
Fit model on training data
Epoch 1/100
630/630 - 99s - loss: 0.6935 - accuracy: 0.5059 - val_loss: 0.6938 - val_accuracy: 0.4643
Epoch 2/100
…
