…
Relying on driver to perform ptx compilation. 
Modify $PATH to customize ptxas location.
This message will be only logged once.
Read data
Data loaded
----------------------------------------
----------------------------------------
Define model architecture
Model: "functional_1"
_________________________________________________________________
Layer (type)                 Output Shape              Param #   
=================================================================
input_1 (InputLayer)         [(None, 14336, 1)]        0         
_________________________________________________________________
Conv_1 (Conv1D)              (None, 4763, 128)         6528      
_________________________________________________________________
batch_normalization (BatchNo (None, 4763, 128)         512       
_________________________________________________________________
Pooling_1 (MaxPooling1D)     (None, 1588, 128)         0         
_________________________________________________________________
Conv_2 (Conv1D)              (None, 1582, 32)          28704     
_________________________________________________________________
batch_normalization_1 (Batch (None, 1582, 32)          128       
_________________________________________________________________
Pooling_2 (MaxPooling1D)     (None, 791, 32)           0         
_________________________________________________________________
Conv_3 (Conv1D)              (None, 782, 32)           10272     
_________________________________________________________________
Conv_4 (Conv1D)              (None, 778, 128)          20608     
_________________________________________________________________
Pooling_3 (MaxPooling1D)     (None, 389, 128)          0         
_________________________________________________________________
Conv_5 (Conv1D)              (None, 375, 256)          491776    
_________________________________________________________________
Pooling_4 (MaxPooling1D)     (None, 187, 256)          0         
_________________________________________________________________
Conv_6 (Conv1D)              (None, 183, 512)          655872    
_________________________________________________________________
Conv_7 (Conv1D)              (None, 181, 128)          196736    
_________________________________________________________________
Flatten1 (Flatten)           (None, 23168)             0         
_________________________________________________________________
dense (Dense)                (None, 512)               11862528  
_________________________________________________________________
dropout (Dropout)            (None, 512)               0         
_________________________________________________________________
dense_1 (Dense)              (None, 2)                 1026      
=================================================================
Total params: 13,274,690
Trainable params: 13,274,370
Non-trainable params: 320
_________________________________________________________________
----------------------------------------
Fit model on training data
Epoch 1/50
202/202 - 37s - loss: 0.8142 - accuracy: 0.6210 - val_loss: 0.9006 - val_accuracy: 0.4893
Epoch 2/50
202/202 - 10s - loss: 0.2509 - accuracy: 0.9022 - val_loss: 0.3315 - val_accuracy: 0.8884
…
